checkpoints/classifier/sam-h/consep.pth (torch, 660296 bytes, 4 tensors)

fc1.weight f4 [128, 1280]
00000000: 3e7a 943c ddcf 0dbc 6710 dd3c 8fff 4ebc
00000010: 12b4 813b 59ee 303c 2d5a 043c 095e 2cbd
00000020: 6126 dcbb c850 313a 453a 163b d596 13bb
00000030: fcd6 233d 205e 833c 95c6 af3b bc25 74bc
00000040: 7096 3d3d 1319 97bc 833e f73b aa13 03bc
00000050: fa1a a9ba 874a c6bb 1a81 813b 1b09 cbbb
00000060: be0b 09bc b713 9dbc 2629 c8bc ef9e 0ebd
00000070: 7860 bd3c 1c96 85bc 8472 ff3c c3b9 d63c
00000080: dba2 a3bb f22c 85bc a157 813c fe1a dd3c
00000090: b67c cd3c 98d5 d4bb 8a96 b33c f7af 1ebc
000000a0: 84d9 e4bc cb61 fb3b ac10 b4bc a603 223c
000000b0: 48bc a43c 81f6 0b3d df92 b5bc 0050 4dbc
000000c0: 3868 66bc 7cc0 8ebb b636 063d 57ed a8ba
000000d0: c0e5 d7bc 4d50 033d c3ed fdbc fce2 26bc
000000e0: 44aa 4abc 8b4e 63bb 3667 c3bc 340a 23bd
000000f0: c65b a9ba 0e90 903c 801a adbb f59d d13b
00000100: 2281 9a3a e939 9dbb f133 ff3c 0e0f 933c
00000110: 2dfc f8bc 85c8 f93b 6546 e43c a54d fc3c
00000120: b8d1 98bc e054 84bc b810 a6bc 20b5 4d3c
00000130: 3a47 a4bb 18e5 61bc 8b16 2e3b 9ef8 003d
00000140: 6f0c fe3c bb35 3d3c 1154 45bc 64e1 063d
00000150: 7903 d2bc bc4a 803c 14e7 383d 7ac2 aabc
00000160: 9387 2fbc d49d 22bc ece9 073d 2fe6 d33c
00000170: 6544 b53c e7cc adbc b399 d4bc 5243 dabb
00000180: 7e5d babb 1e01 f63c 363b 3fbc 9777 8f3c
00000190: 1924 81bc 7995 05bd 7f75 6a3c 6640 373c
000001a0: bc69 c8b9 a323 07bd f506 e2ba 9c05 3e3b
000001b0: 7fc0 c6bc a1b4 e0bb 5528 cf3b 15b1 dd3c
000001c0: 0ce8 30bc 942b 9ebb 7d03 66bb d5df 96bc
000001d0: 1877 5fbc 7d94 e5bc e19c 893c a9c8 8e3c
000001e0: edef 453b 1d29 973b a5d1 633c fc69 6f3c
000001f0: 0a72 04bc 865f 1e3c c182 8ebc 200f 733c
00000200: fd6d e73c aa97 69bc a998 2fbd 108e 4f3b
00000210: ffe8 a23c 4bcc 83bc adf6 293c b21b 68bb
00000220: 38fe 79bc bc3c f93b 6720 81bc 9a5a 39bc
00000230: 66df b63a 4f2c ea3c e62d 8d3c f712 b43c
00000240: 1b98 c439 8b66 e03b f376 9cb8 cd2c 78bc
00000250: db78 db3c 9840 9fbb b9de a3bb 8f15 933c
00000260: c847 d33c 1c8f aabc 38d9 853c 3627 9e3c
00000270: 54e9 24bc bb15 8e3b 1127 b5bc a9df b93b
00000280: 8c05 d93c 779f 0bbb 8d52 ea3b 42a0 a6bc
00000290: f1e7 97bc 6415 78bc add5 e43c 86c3 bbbb
000002a0: 7f49 ba3c 1f8c 2e3b 07a6 be3c 0f14 9cbb
000002b0: 34ab 32bc 3ad1 f43a a353 223c adb7 afbc
000002c0: 047d 663c fca7 2c3c 1326 aa3c 7d54 003b
000002d0: 15c8 c3ba 66f1 d1bc 2e39 47bc 7f00 90bc
000002e0: 0e0e a1b9 d19b 103d 64ad 6e3c d7f1 d63b
000002f0: e529 4bbc 9c31 a13c ea64 f73a 7f08 2dbc
00000300: dc84 48bc ac03 a9bb 56f5 fbba c419 b5bc
00000310: 1ee5 ffbc e918 e63c 4916 98bc b19d 5c3c
00000320: 4b7c 723b bd7b a9bc 097a 4e3c 923d 11bd
00000330: 7522 f73a 7f56 0bbb 6e5c 9abc f92a 79bb
00000340: 181a 20bb 0d7d 77bc 639b 5fbc 2b2f 78bc
00000350: 2313 5cbc 7949 52bb f4fc d53c 6fc4 493c
00000360: 3d61 483c a1e8 433d ca1a 7b3c 68d4 6dbc
00000370: 0f5c bcbc e46d 6a3c 0ad7 cd3c dcf3 70bb
00000380: c7b7 b1bc 7598 363c 7ad7 e4bb 8112 a7bc
00000390: 9c85 013b 45ef 543d 2da8 3b3c 0aad d3bc
000003a0: 4995 21bb 337e c5bc 6897 9cbc 94ec d43a
000003b0: c4df 54bb 4286 b13a d6c1 42bb 4a3c 233c
000003c0: 78ef 2abd a6a8 17ba 36c7 f1bc 5980 01bc
000003d0: 31f9 a8bc a1f3 c6bc 1fcb 423c e9e7 cfbc
000003e0: 3bfa 3ebc 0821 e6bc b51c 053d 5ada 413b
000003f0: 4176 06bd e8aa 593c 8d76 cbbb 0775 13bd
0.018124696 -0.0086555155 0.02698536 -0.012634172 0.0039582336 0.010799014 0.00807814 -0.042081866
-0.0067184423 0.00067640515 0.0022922915 -0.0022520323 0.039999947 0.016036093 0.005364249 -0.014901575
0.046286047 -0.018444574 0.007545294 -0.008000294 -0.0012901716 -0.006051365 0.0039521577 -0.006196154
-0.008364616 -0.01917444 -0.024433684 -0.03481954 0.023117289 -0.01630693 0.031182535 0.026211625
-0.004993779 -0.016256783 0.015788855 0.02699041 0.02508388 -0.006495189 0.021922369 -0.009685508
-0.02793575 0.00767157 -0.021980606 0.009888565 0.02010931 0.03417063 -0.02216476 -0.0125312805
-0.014062934 -0.004356442 0.03276702 -0.0012888116 -0.02635467 0.032059003 -0.030997163 -0.010185953
-0.012369696 -0.0034684266 -0.023852926 -0.039804652 -0.0012921027 0.017646816 -0.0052827 0.006397004
0.0011787752 -0.004798163 0.031152697 0.017951515 -0.030393684 0.0076227807 0.027865598 0.030798743
-0.01865469 -0.016153753 -0.020271644 0.012555391 -0.0050133737 -0.01378753 0.002656373 0.0314871
0.031011788 0.011548455 -0.012043969 0.032929793 -0.025636422 0.015660636 0.04514225 -0.020844687
-0.010713476 -0.0099253245 0.03318207 0.025866596 0.02212734 -0.02121587 -0.025952196 -0.0066608572
-0.0056874147 0.03002983 -0.011671832 0.01751308 -0.015764283 -0.03261325 0.01431024 0.011184787
-0.0003822575 -0.03299297 -0.0017244505 0.0028995043 -0.024261711 -0.00685747 0.0063219466 0.027061978
-0.010797512 -0.0048269723 -0.0035097294 -0.018417278 -0.013639234 -0.028024906 0.016798439 0.017429667
0.0030202821 0.0046130554 0.013904964 0.014612671 -0.00808383 0.009666329 -0.017396333 0.014835149
0.028250689 -0.014257351 -0.042870197 0.003167037 0.019886492 -0.016088625 0.0103737535 -0.0035416898
-0.015258364 0.007606117 -0.015762521 -0.011313105 0.0013952076 0.028585581 0.0172338 0.0219817
0.0003749736 0.0068481616 -7.460816e-05 -0.0151474 0.026791027 -0.004859995 -0.005000916 0.017954616
0.025791064 -0.020820193 0.01633893 0.019305807 -0.010065395 0.0043360866 -0.022113355 0.0056724143
0.026491903 -0.0021304765 0.007150954 -0.020340089 -0.018543215 -0.015141819 0.02793392 -0.0057300953
0.022740124 0.0026633812 0.023272527 -0.0047631334 -0.010905076 0.0018678077 0.009907636 -0.021449888
0.014067892 0.0105380975 0.020770108 0.001958161 -0.0014936948 -0.025627803 -0.012159629 -0.017578362
-0.00030718785 0.035304848 0.014567707 0.0065595913 -0.012400125 0.019676976 0.0018874679 -0.010561108
-0.012238707 -0.0051579084 -0.0019222896 -0.022107013 -0.031237181 0.02808805 -0.018565314 0.013465331
0.0037000354 -0.020688886 0.012602338 -0.03545911 0.0018854873 -0.0021261272 -0.018842902 -0.0038019998
-0.0024429616 -0.015105498 -0.013647887 -0.0151479645 -0.013432297 -0.003208725 0.026121594 0.0123149
0.012230215 0.047829274 0.015326211 -0.014515974 -0.022993116 0.0143084265 0.025126953 -0.0036766445
-0.021694077 0.011144747 -0.0069836946 -0.020394566 0.0019763475 0.051985998 0.01145367 -0.025839347
-0.0024655631 -0.024108028 -0.019115165 0.0016244822 -0.0032482008 0.001354404 -0.0029717586 0.0099631045
-0.04173228 -0.00057853234 -0.029513936 -0.007904136 -0.020626636 -0.024286093 0.011889248 -0.025379138
-0.011656339 -0.028091922 0.03249808 0.002957961 -0.03282762 0.013285376 -0.0062092007 -0.036000278

fc1.bias f4 [128]
00000000: d4f2 443c 732c c73c 6c39 eebc 374b 413c
00000010: c350 8b3c dfbc 1dbc d84a bf3c 98ca aabc
00000020: 5535 bfba 9bfb 29bc e9bb cb3c cf95 a3bc
00000030: 9573 4a3c 113b da3c 0f63 803b 71c5 c0bc
00000040: a180 213c 1f64 80bc 48d4 9abc 755a 8f3c
00000050: ebdb c43c 695d 193b 2d1f cebc 4e2b fcba
00000060: ad5d b9ba ad7b e13c b12c 5fbb fdcc b83c
00000070: 3966 b23b 788c 3a3c bf49 e63b cc72 943c
00000080: 30f3 b1bc e789 143b 5340 833c d076 e63c
00000090: e86e d93b e786 c2ba 93f6 a3bc a211 c3bb
000000a0: 2a6a 50bb 77aa cd3c 1b1e 243c db85 d33b
000000b0: 1cf0 5dbc fb28 9dbc 370b e8bb 3670 ccbb
000000c0: 2a2c a9bc c892 91bc f26a 85bc 42c9 76bc
000000d0: 69fe 8dbb 88ef edbc 124b db3c 40fd c1bc
000000e0: 5c4e ba3c 0783 9dbb 5b2b cf3b 7619 903c
000000f0: dbfd 07bc 76ca f83a 3c77 c13c 7d5e 44bc
00000100: 450c 423c 32d5 aa3c ff60 bfbc eeaf c03c
00000110: 2c31 0f3b 49dc 243a 7c0e 8cbc 2d5b a13c
00000120: 4768 c1bc 539f 45bc 3521 bcbc e578 e4bc
00000130: 3fc1 79bc 6c84 2c3c 2c50 9b3b 63ff b8bc
00000140: b344 a83c 9e2d 53bc 7c74 81bc 0e2c e93c
00000150: 2983 cbbb 9e4a 48bc be43 b8bc e880 ebbc
00000160: dadb dabc 6bd4 853b 34dc cabc 63fe 0d3c
00000170: 8829 b5bc 5eda db3c 6435 713c 4be5 ae3b
00000180: 8928 933c e76b 7dbb 3e78 963c fa59 87ba
00000190: 172e abbc a3fe 74bc a8c3 873c 951d f63b
000001a0: 86f1 4fbc 9393 02bc c83a d73c 19d5 b2bb
000001b0: ff03 6e3c c80e 4f3c 7e56 893c caf7 493c
000001c0: ab46 92bb 5253 0cbc 450b 56bc df38 853c
000001d0: 0ea0 f7bb bdf5 b33c a568 b5bb 5c52 943c
000001e0: 47d1 a7bb fbd6 d63c 2721 38bc 6744 51bc
000001f0: 33eb 8dbc 7654 5d3b 987a debc 2d3a 493a
0.012020785 0.024313187 -0.029080115 0.011797718 0.017006284 -0.00962755 0.023351118 -0.020848557
-0.0014588038 -0.010374929 0.024869876 -0.019968895 0.0123566585 0.026639493 0.0039180587 -0.023531647
0.009857328 -0.015672741 -0.018900052 0.017499188 0.024030646 0.0023401624 -0.02516135 -0.001923898
-0.0014142297 0.027524794 -0.0034053738 0.022558684 0.005444315 0.011386029 0.007027834 0.018121146
-0.021722406 0.0022665204 0.016021883 0.028132826 0.0066355355 -0.001484123 -0.020015037 -0.0059530297
-0.003180156 0.025105698 0.010016943 0.006455166 -0.013546016 -0.01918458 -0.007081415 -0.0062389625
-0.020650942 -0.017770186 -0.016286347 -0.015062632 -0.0043333066 -0.029044881 0.026769195 -0.02368033
0.022742443 -0.0048068794 0.006322307 0.017590266 -0.00830027 0.0018981236 0.023616426 -0.011985418
0.011843746 0.020853613 -0.023361681 0.02352139 0.0021849377 0.00062889286 -0.01709675 0.019696796
-0.023609294 -0.012061912 -0.022965053 -0.027889678 -0.015243827 0.010529619 0.004739782 -0.022582715
0.02054057 -0.012889294 -0.015802614 0.02846339 -0.006210704 -0.012224821 -0.02249324 -0.02874799
-0.026716162 0.00408416 -0.024763204 0.008666608 -0.02211453 0.026837524 0.014722202 0.0053373924
0.017963665 -0.003866905 0.018367883 -0.0010326498 -0.020896 -0.014953288 0.016572788 0.0075108507
-0.012691861 -0.007969755 0.026273146 -0.005457532 0.01452732 0.0126378015 0.016764876 0.012327144
-0.0044639907 -0.008564787 -0.01306421 0.01626247 -0.007556922 0.021967763 -0.0055361562 0.018105678
-0.0051213834 0.026225558 -0.011238373 -0.012772656 -0.017324066 0.0033772266 -0.027158067 0.00076762104

fc2.weight f4 [4, 128]
00000000: f461 95bd 1de8 cdba 2815 32bc fc04 81bd
00000010: b21b 88bd 834c 0bbe 6729 48bd b97f 01bd
00000020: 0404 9ebd 3250 c5bd b207 babd 37c7 ac3d
00000030: 9316 c8bd fe55 bc3d f1e0 72bd b8af 0b3d
00000040: 5cc9 683a 5576 953d 5223 553d b664 753c
00000050: 46f4 c6bd 11b1 023d 9d5c 07be a08f 6a3d
00000060: b19a dabd 93fb 943d 52a3 0a3b 8922 ae3d
00000070: a9a6 47bd c249 c0bd 5ee3 8abd 6319 0ebd
00000080: 7abc 043c 7dff a73d dd16 0dbd f083 4a3d
00000090: d0bd 8dbd 6e7b 813c fe02 47bd 24cd afbd
000000a0: 81ff 943d 1f40 a83d 8be8 12bd fbe1 8fbd
000000b0: a7dc 043d 990f 05bd deaf a0bc df1a d6bd
000000c0: 2487 1e3c 0dad c4bd f847 88bb 26db 93bd
000000d0: 2d19 a4bd 02d4 afbc c347 a8bc 7a19 973d
000000e0: 4c6b c3bd 6e75 fbbd 457e c6ba 2015 0b3d
000000f0: 1856 183d 0da8 293d 2927 dabc a0c0 cdbd
00000100: 2b4b c4bc 5e1b 29bd 0a8e fbbc 85cf de3c
00000110: 3269 0a3d 13a0 a03d 945b 533d 9925 d43c
00000120: 242e ebbd beab 6bbd 6ab6 9abc 039f 22bd
00000130: 5597 783d 07c7 223b f16b 9c3d eb86 b83d
00000140: 206e c6bb e4fd 6d3b 3eb8 a0bd dfab a6bd
00000150: 69bd b33b d3c1 c6bd 7ac6 593d e559 ae3c
00000160: 1496 b9bc 8e2c af3d 593c 333c 2e05 ae3c
00000170: 5402 8dbd 5446 bb3d 6838 a23d 4b1a c0bc
00000180: ee56 edbc e7ba 513d fde9 b8bc 5b66 c8bb
00000190: d3d0 fd3c 19c6 433d 6590 0e3d f4f8 ebbd
000001a0: 245f 9d3d 8333 603c a0a5 bd3c 5677 813d
000001b0: 8b28 913d 5f6f b0bd 574c 853d 02f1 12bb
000001c0: 0572 273d 5457 9f3d c66a 183d 8136 ca3d
000001d0: 64ac d83a 67eb 053d 1f88 f9bd 1011 553d
000001e0: eb08 ef3b 7b97 b6bd c042 8dbd b002 46bd
000001f0: bfdc 6fbd 54a5 d7bc d82b 91bd 3cef 833d
00000200: 159a 353c e9f6 a93d f8b9 e03d 0f69 a2bd
00000210: b06b 143d 26d3 353d 0c8a 603d 6aa0 d7bd
00000220: c06c 8f3c c84b 703c f202 57bd a6f8 e93c
00000230: f5bc dabd 155e eab9 7b21 9cbd 05de b0bc
00000240: 1101 c5bd ca91 9fbd 102b 743b b0f1 393d
00000250: 02cb c73c 613b b63c 540b 97bd 6a81 503c
00000260: fee8 933c 13e9 bbbd 431a b33b 71b8 2fbd
00000270: 308f 6f3d bc51 3d3d e00d 9c3c cb09 db3c
00000280: c5fb 5e3c 64c4 873d b434 9abd 3b8c 973b
00000290: bdb1 9c3c 3d3c 5ebd c361 09bc ab76 883d
000002a0: 7e40 a3bd 4dcd 383d 74b5 793d 7990 1f3d
000002b0: 88de 573d 9ada 913d 373c 933d 5d45 54bc
000002c0: f131 05bd 60cb a43d 8890 5f3d 7e04 bcbd
000002d0: 9f96 6d3d df63 afbd 712b dabd 7ff5 90bd
000002e0: bd35 8b3d c826 8b3d 1749 c1bd 92ed bcbd
000002f0: 657a a4bc c291 b6bd f1ad 603c d353 183d
00000300: 148b af3d bc74 813c 84d8 23bc 7d90 223d
00000310: 6c9c c8bc 065b 4ebd c112 dabd 3137 e7bd
00000320: 5e53 913d 15fd 69bd b035 edbd a129 81bd
00000330: 720a a4bd c499 a73c a9de 593d 183d 853d
00000340: 7dd0 b53c cf44 d63d 23bc d13d 22e2 d3bd
00000350: 48b1 fbbd bb5a 6fbc 48d9 803d b652 19bc
00000360: 172d 92bd 5542 22bd 2b73 13bd 847c fa3b
00000370: 4593 c93c 5768 843d cef0 e1bb 2d54 d5bd
00000380: ce07 dcbb 8459 9b3d e1ee b73d 1a1d f938
00000390: c726 99bd 60a3 b1bc 42d4 32bd 1c35 103d
000003a0: 9148 19bd 64ca a1bd d77a 9c3b 81f1 29bd
000003b0: 2b40 5abd 430d 7a3d b1df 37bd 1cfb d3bd
000003c0: aaae 5e3d d332 1c3d 786e 6fbd 1d8e 2ebd
000003d0: 4e6c 9a3d d959 efbb f8af 393d e2f1 1d3d
000003e0: 76bb b13d b3aa 3d3c cd76 993d c8de 3f3d
000003f0: 8d1a 4fbd 339c b7bd f40c b13d 8c79 1cbd
-0.07294074 -0.0015709434 -0.010869302 -0.06299779 -0.066459075 -0.13603406 -0.04886761 -0.031615946
-0.0771561 -0.09634437 -0.09083499 0.08436435 -0.09769931 0.09196089 -0.059296552 0.034103125
0.00088801025 0.07297961 0.052035637 0.014977625 -0.0971456 0.031907145 -0.13218923 0.057265878
-0.10674036 0.072745465 0.0021154475 0.08502681 -0.048742924 -0.09389068 -0.06781648 -0.03469218
0.008101577 0.082030274 -0.034445632 0.04944223 -0.069209695 0.015805926 -0.048586838 -0.08584049
0.07275296 0.08215355 -0.0358663 -0.07025524 0.032436993 -0.03248558 -0.01961511 -0.10454344
0.009675775 -0.09603319 -0.00415897 -0.072195336 -0.080126144 -0.021463398 -0.020542031 0.07377906
-0.0954195 -0.12278257 -0.0015143832 0.033955693 0.03719148 0.04142003 -0.026630001 -0.10046506
-0.023961624 -0.041285865 -0.030707378 0.027198562 0.03379173 0.07843032 0.051601008 0.025896834
-0.1148341 -0.057536833 -0.01888581 -0.039702427 0.060691196 0.0024837868 0.07637776 0.090101086
-0.0060556084 0.003631466 -0.078476414 -0.081382506 0.005485226 -0.09704938 0.053167798 0.0212831
-0.02265457 0.0855342 0.010939681 0.021242704 -0.0688521 0.091442734 0.07920915 -0.023450037
-0.028972115 0.051203635 -0.022572512 -0.0061157173 0.030983364 0.047796343 0.034805674 -0.115220934
0.07684162 0.013684156 0.023150265 0.0632159 0.07087811 -0.08614992 0.06508701 -0.0022421484
0.040880222 0.077803284 0.037211202 0.09873677 0.0016530869 0.0326952 -0.12184166 0.052018225
0.0072947643 -0.08915611 -0.06897497 -0.048342407 -0.05856013 -0.026323952 -0.07088441 0.06442115
0.011084099 0.082990475 0.10972971 -0.079301946 0.03623551 0.04439082 0.05481915 -0.105286434
0.01750791 0.014666505 -0.052493043 0.028560948 -0.10680572 -0.00044702055 -0.076235734 -0.021590242
-0.09619344 -0.07791479 0.0037257113 0.045396507 0.024388794 0.022245111 -0.073752075 0.012726167
0.018055435 -0.09175315 0.005465777 -0.042900506 0.058486164 0.046220526 0.019049585 0.026738068
0.013609831 0.066292554 -0.075295836 0.004624871 0.019127721 -0.054256666 -0.008385125 0.06663259
-0.07971285 0.045117665 0.060964063 0.03895614 0.052702457 0.07121773 0.071892194 -0.012955991
-0.03251833 0.08046603 0.054581195 -0.09180544 0.05800497 -0.08563971 -0.10652817 -0.07078075
0.06797359 0.06794506 -0.09437769 -0.092250004 -0.020077894 -0.0891452 0.013713346 0.037189316
0.08571449 0.015802734 -0.010000352 0.039688576 -0.02448865 -0.050379775 -0.10648108 -0.11289824
0.07095979 -0.057126123 -0.11582506 -0.06306768 -0.08009805 0.020459063 0.05319086 0.06505793
0.022194142 0.10462343 0.10240962 -0.10345866 -0.12289673 -0.014609034 0.06291443 -0.009358099
-0.071375065 -0.03961404 -0.035998505 0.007644238 0.024606356 0.06465214 -0.0068951612 -0.10416446
-0.0067147976 0.07585433 0.089811094 0.00011878666 -0.07478099 -0.021684349 -0.043659456 0.0352069
-0.03742272 -0.07899931 0.004775386 -0.04149008 -0.05328385 0.061047804 -0.044891063 -0.1035063
0.05436579 0.038134407 -0.05845496 -0.042616 0.07540189 -0.007304412 0.045333833 0.038560756
0.086783335 0.011576342 0.074933626 0.04684332 -0.05056243 -0.089653395 0.08645049 -0.038201854

fc2.bias f4 [4]
00000000: 0b4f ed3b cd61 51bd 68ee ac3d c3e2 ab3d
0.0072420887 -0.05111866 0.0844391 0.08392861
