checkpoints/classifier/sam-h/nucls_super.pth (torch, 660528 bytes, 4 tensors)

fc1.weight f4 [128, 1280]
-0.008949862 -0.009674369 0.02183889 -0.008765335 0.010469604 0.0065127066 0.019717714 -0.025494454
0.017882645 0.0011303144 -0.0034162276 0.020915516 0.032691937 0.0016227207 -0.0038666278 0.0016534274
0.016509278 -0.01704428 0.012536986 -0.0024607545 0.010285072 0.008198571 0.024518663 -0.009448272
1.7001144e-05 -0.016656844 0.0046687024 -0.039388906 0.03635274 0.0061295456 0.005314194 0.02249186
-0.024912875 -0.020141361 0.03376677 0.04996159 0.03071884 0.0026340394 0.022313247 -0.008965689
-0.030080397 0.013873957 -0.02176766 0.0033027194 0.022626394 0.011157077 -0.0091534015 -0.014876897
0.0038775143 -0.011332016 0.02930221 -0.0006475318 -0.01703188 0.006899234 -0.022172494 -0.008940162
-0.012394518 -0.03430506 -0.040256694 -0.021043733 0.009873646 -0.005225609 -0.030823229 0.0036362393
0.009725776 -0.005317513 0.024127208 0.015578581 -0.011043726 0.019160654 0.03409429 0.036156233
-0.029403828 -0.020144133 -0.011478293 0.0016825061 -0.01730551 -0.0063303043 0.0071439254 0.011589431
0.018580358 0.018645016 -0.01575614 0.01720579 -0.006432812 0.005702859 0.01835853 -0.028190315
-0.032214362 -0.012349626 0.02097371 0.01455418 0.04645554 -0.031646162 -0.05903198 0.016184986
-0.016566398 0.021903725 -0.024227932 0.029650789 -0.020146726 0.0026070706 -0.0051544188 0.00859329
-0.055369053 -0.031761352 -0.016282517 -0.008279806 -0.016997108 -0.014652724 0.013338614 0.0028556997
0.0033629513 -0.011757626 0.00464194 -0.009622379 -0.009966769 -0.03257295 0.010497036 0.012504334
-0.004769999 -0.008583089 0.025929984 0.01727461 -0.025198685 0.013423541 -0.02279842 0.013555154
0.010572936 -0.01050487 -0.016692298 -0.016096804 -0.00014209519 -0.008466595 0.024414167 -0.008884549
-0.0065221186 -0.008723666 -0.038560923 -0.010474514 0.007011036 0.012248134 0.016077705 0.01808419
0.006376786 0.03320847 0.0020053205 -0.014016125 0.007509497 -0.0028615568 -0.016450264 -0.0006188078
-0.010652821 -0.007059251 0.017935311 0.02278029 -0.019138152 0.011480852 -0.010498088 -0.021359567
0.018153697 0.008397182 -0.0074271234 -0.0054113115 0.023388688 0.020491773 0.029615572 0.017272234
-0.009582348 -0.009237702 0.027958276 -0.009486413 -0.025860326 0.040439542 0.013594207 -0.010819655
0.0007114072 -0.0069370707 0.028012102 0.022229584 -0.011972917 -0.026091991 -0.038251434 -0.014819904
0.023484165 0.0015985643 0.009514097 -0.00032998502 0.0036886754 0.014890611 0.0038663773 0.0017428696
-0.023446346 0.017496837 -0.012157734 -0.010258298 -0.026333394 0.040139392 -0.02586467 0.0045008208
-0.010534536 -0.0036205046 0.007512348 -0.004364362 0.0075298925 0.030829443 -0.037557818 -0.013798693
-0.0030534791 -0.01208998 -0.0056286897 -0.019925242 -0.0054289964 -0.029833684 0.008050698 -0.0019632722
0.020740483 0.020422403 -0.012662106 0.0021352891 -0.023908753 0.006768075 0.01879464 0.009694897
-0.003838897 -0.014307797 -0.0029179796 -0.023791524 -0.0044330433 0.017435461 7.4004533e-06 0.00040304734
-0.012165583 -0.037036214 -0.036427412 -0.010518231 -0.011611599 -0.0037721351 0.008969186 -0.008263996
-0.013707892 0.006040526 -0.044269364 -0.022154542 -0.0073762634 -0.03655645 0.00495312 0.0025934963
-0.026457824 -0.03782541 0.022477347 0.0066551897 -0.037680764 -0.006740665 0.011473743 -0.037134763
00000000: 71a2 12bc 3f81 1ebc 79e7 b23c 7b9c 0fbc
00000010: b488 2b3c 8b68 d53b 0b87 a13c bfd9 d0bc
00000020: a07e 923c 0f27 943a cae2 5fbb 0457 ab3c
00000030: fbe7 053d 79b1 d43a 4067 7dbb d1b7 d83a
00000040: 773e 873c 72a0 8bbc ee67 4d3c 9c44 21bb
00000050: b882 283c 4d53 063c 5ddb c83c edcc 1abc
00000060: ae9d 8e37 ef73 88bc eafb 983b 4356 21bd
00000070: 9ce6 143d 5bda c83b b122 ae3b d940 b83c
00000080: 1616 ccbc 7fff a4bc 064f 0a3d 86a4 4c3d
00000090: 14a6 fb3c d99f 2c3b 45ca b63c d3e4 12bc
000000a0: 2a6b f6bc 984f 633c 1752 b2bc 7072 583b
000000b0: fd5a b93c 2ccc 363c 26f8 15bc 3bbe 73bc
000000c0: e51d 7e3b eca9 39bc 300b f03c 20bf 29ba
000000d0: 7186 8bbc f812 e23b 17a3 b5bc c279 12bc
000000e0: 6012 4bbc 7683 0cbd 34e4 24bd e863 acbc
000000f0: 13c5 213c 963b abbb ff80 fcbc f94d 6e3b
00000100: dc58 1f3c 883e aebb 6ca6 c53c 4e3d 7f3c
00000110: bef0 34bc cef6 9c3c 74a6 0b3d 8f18 143d
00000120: 4ce0 f0bc 4f05 a5bc 730f 3cbc 8987 dc3a
00000130: 49c4 8dbc 716e cfbb 9717 ea3b 99e1 3d3c
00000140: d635 983c 6fbd 983c 0513 81bc 28f3 8c3c
00000150: 57ca d2bb 0cdf ba3b a164 963c 60ef e6bc
00000160: 35f3 03bd 1656 4abc 0fd1 ab3c a874 6e3c
00000170: 2a48 3e3d 689f 01bd 84cb 71bd 6096 843c
00000180: 41b6 87bc 716f b33c a879 c6bc 36e6 f23c
00000190: bf0a a5bc 63db 2a3b 66e6 a8bb dfca 0c3c
000001a0: a9ca 62bd 3118 02bd ea62 85bc 06a8 07bc
000001b0: 853d 8bbc fb11 70bc 348a 5a3c b126 3b3b
000001c0: f664 5c3b 0fa3 40bc 6a1b 983b 2fa7 1dbc
000001d0: a94b 23bc 376b 05bd c3fb 2b3c fade 4c3c
000001e0: a74d 9cbb 16a0 0cbc 1e6b d43c 7c83 8d3c
000001f0: 796d cebc 69ee 5b3c c1c3 babc 7016 5e3c
00000200: 1c3a 2d3c 9e1c 2cbc 49be 88bc 72dd 83bc
00000210: 63ff 14b9 79b7 0abc 3800 c83c 8090 11bc
00000220: 7fb7 d5bb b5ed 0ebc 0ff2 1dbd 4c9d 2bbc
00000230: d5bc e53b 66ac 483c 64b5 833c 4c25 943c
00000240: 5cf4 d03b 9b05 083d b26b 033b e4a3 65bc
00000250: 3a12 f63b f588 3bbb b4c2 86bc 7d37 22ba
00000260: 2b89 2ebc 4a51 e7bb 13ed 923c bb9d ba3c
00000270: 9dc7 9cbc 2f1a 3c3c 2c00 2cbc 42fa aebc
00000280: 10b7 943c 5694 093c 3a5f f3bb 5f51 b1bb
00000290: a299 bf3c 5dde a73c 5b9c f23c 807e 8d3c
000002a0: 48ff 1cbc bb59 17bc c108 e53c e66c 1bbc
000002b0: 09d9 d3bc efa3 253d 3dba 5e3c ec44 31bc
000002c0: bb7d 3a3a 5e50 e3bb a379 e53c d11a b63c
000002d0: 0e2a 44bc dfbe d5bc 89ad 1cbd 2fcf 72bc
000002e0: dd61 c03c eb86 d13a 04e1 1b3c d701 adb9
000002f0: b4bd 713b c0f7 733c 0c63 7d3b 0071 e43a
00000300: 8d12 c0bc 8755 8f3c 3b31 47bc 6c12 28bc
00000310: 21b9 d7bc 3469 243d 25e2 d3bc 9f7b 933b
00000320: 0c99 2cbc fd45 6dbb 242a f63b ec02 8fbb
00000330: 51bd f63b 078e fc3c 3ad6 19bd ea13 62bc
00000340: e11c 48bb 0d15 46bc df70 b8bb 433a a3bc
00000350: b9e5 b1bb c565 f4bc 13e7 033c 3eaa 00bb
00000360: f2e7 a93c e24c a73c b974 4fbc 35f0 0b3b
00000370: 4adc c3bc bac6 dd3b 38f7 993c 58d7 1e3c
00000380: 0196 7bbb 406b 6abc 933b 3fbb 71e6 c2bc
00000390: 1043 91bb d0d4 8e3c 6951 f836 1950 d339
000003a0: 2752 47bc 49b3 17bd e934 15bd a954 2cbc
000003b0: 933e 3ebc ed35 77bb 7ef3 123c b665 07bc
000003c0: 1197 60bc 9bef c53b cb53 35bd 717d b5bc
000003d0: 95b4 f1bb 37bc 15bd c84d a23b a6f7 293b
000003e0: 14be d8bc d1ee 1abd 6a22 b83c c713 da3b
000003f0: 2557 1abd cce0 dcbb 5efc 3b3c 9f1a 18bd

fc1.bias f4 [128]
0.0076350714 0.02640762 -0.02860949 0.01369863 0.015687745 -0.014142876 0.016383229 -0.027039994
-0.00897771 -0.009975954 0.016064653 -0.014782159 0.009888852 0.029814795 -0.0024700041 -0.024393484
0.006539877 -0.011551769 -0.014125938 0.015485513 0.013148639 0.012436479 -0.033648893 -0.0015251951
-0.0035418433 0.021847699 -0.0012468674 0.021491747 0.007939228 0.008515357 0.0066118585 0.0217757
-0.01441666 0.010206438 0.006345411 0.02249873 0.009255421 -0.0025095297 -0.019042471 -0.011864186
-0.012060783 0.023231048 0.011183039 0.0012283887 -0.014973388 -0.018246382 -0.009051837 -0.014220672
-0.02696017 -0.02143479 -0.0115865385 -0.019433392 0.0040125526 -0.031938992 0.02188786 -0.018545141
0.013568039 -0.010942417 0.0016247926 0.009304529 -0.0048672585 0.00050010014 0.022932867 -0.015457875
0.0064760977 0.014797776 -0.020700444 0.022243982 0.0059696 -0.0017818968 -0.017195096 0.01479525
-0.02870328 -0.014156184 -0.03255578 -0.022584694 -0.015266942 0.0038417329 0.0008847885 -0.015431865
0.02526903 -0.012793339 -0.013033266 0.022374345 -0.015624698 -0.022090062 -0.01608042 -0.022007095
-0.029489491 0.005012915 -0.028790828 0.018134821 -0.02956423 0.03380257 0.011075559 -0.0024662577
0.014120912 0.0003398074 0.017491255 0.006414767 -0.019590635 -0.0077077197 0.020569053 -0.0029471258
-0.017017111 -0.01416261 0.032799907 -0.0018479087 0.00901297 0.0042520496 0.021008857 0.00547402
0.005492674 -1.4412057e-05 -0.0147682335 0.015516681 -0.014209563 0.021913268 -0.009444949 0.023931943
0.0035172633 0.020504659 -0.010260739 -0.02653547 -0.024912398 0.007103769 -0.023412403 -0.0016117374
00000000: 9f2f fa3b cb54 d83c 735e eabc 3870 603c
00000010: 9683 803c 85b7 67bc 1f36 863c fa82 ddbc
00000020: 3f17 13bc 2f72 23bc 059a 833c de30 72bc
00000030: da04 223c 283e f43c cbdf 21bb d8d4 c7bc
00000040: 774c d63b a243 3dbc 7a70 67bc f3b6 7d3c
00000050: 646d 573c 60c2 4b3c 6cd3 09bd 0ee9 c7ba
00000060: 451e 68bb f2f9 b23c ed6d a3ba 760f b03c
00000070: 8913 023c ff83 0b3c 4aa8 d83b f462 b23c
00000080: db33 6cbc e738 273c 2aed cf3b 424f b83c
00000090: 0da4 173c ec76 24bb f5fe 9bbc 0162 42bc
000000a0: 979a 45bc 0a4f be3c 1139 373c e301 a13a
000000b0: f152 75bc 7079 95bc 284e 14bc d2fd 68bc
000000c0: 93db dcbc 0398 afbc 77d5 3dbc c732 9fbc
000000d0: bb7b 833b 76d2 02bd 2b4e b33c fbeb 97bc
000000e0: 7b4c 5e3c d347 33bc fef6 d43a 0672 183c
000000f0: 867d 9fbb 2719 033a b5dd bb3c 0743 7dbc
00000100: 7235 d43b 5f72 723c fa93 a9bc 0339 b63c
00000110: a29c c33b 898e e9ba bbdc 8cbc c767 723c
00000120: 2423 ebbc 57ef 67bc 3659 05bd 8903 b9bc
00000130: 3222 7abc 95c5 7b3b 27f1 673a efd5 7cbc
00000140: ff00 cf3c 279b 51bc 7b89 55bc 674a b73c
00000150: bcfe 7fbc 38f6 b4bc 16bb 83bc 3948 b4bc
00000160: f293 f1bc 6143 a43b beda ebbc 7a8f 943c
00000170: af30 f2bc 9074 0a3d 4376 353c f0a0 21bb
00000180: 665b 673c 2d28 b239 d249 8f3c f732 d23b
00000190: 8a7c a0bc 0a91 fcbb 6e80 a83c 9124 41bb
000001a0: 7867 8bbc 4b0a 68bc 3259 063d 8735 f2ba
000001b0: 23ab 133c c754 8b3b c41a ac3c 685f b33b
000001c0: e4fb b33b 50cb 71b7 76f6 71bc ad39 7e3c
000001d0: 3acf 68bc 7483 b33c fdbe 1abc ec0c c43c
000001e0: e381 663b 63f9 a73c a91c 28bc ea60 d9bc
000001f0: 1615 ccbc bcc6 e83b 5ecb bfbc ef40 d3ba

fc2.weight f4 [4, 128]
-0.094677 -0.014234766 -0.020672698 -0.10121867 -0.14161547 -0.19003554 -0.15596308 -0.022625206
-0.19617827 -0.0975569 -0.14189623 0.09736649 -0.16539699 0.165368 -0.047746602 0.03553033
0.043090384 0.11698866 0.07656551 -0.011276851 -0.17386533 0.049557433 -0.14794126 0.10866514
-0.18459126 0.09768885 -0.02583738 0.18276589 -0.05507844 -0.14434436 -0.088784344 0.008159171
0.04766012 0.1312977 -0.07098269 -0.0027324175 -0.03897839 0.011790791 -0.10191552 -0.1638387
0.07953377 0.052730948 -0.04565197 -0.12683378 -0.039180774 -0.038710978 -0.036843225 -0.17634493
0.026269514 -0.11618399 -0.0022255771 -0.07924764 -0.14666285 0.049779147 -0.0506917 0.20564793
-0.13548738 -0.1880044 0.010837475 0.063502595 0.057059553 0.05487369 -0.03802538 -0.2329597
-0.06825378 -0.09099516 -0.067523174 -0.017436849 0.050058566 0.13970296 0.11324555 0.09489125
-0.23773526 0.0024290052 -0.016564347 -0.025011886 0.12536775 -0.04610991 0.08252183 0.13560411
0.036415845 -0.08503369 -0.109877534 -0.08015137 0.0005827708 -0.2125651 0.06315597 0.112357594
0.078194775 0.12352014 -0.017039813 0.06766026 -0.15000711 0.10119583 0.124185264 -0.04434527
-0.08466847 0.04192257 -0.052672267 -0.0018962703 0.123425856 0.054336783 0.06111993 -0.19051886
0.1399551 0.00071582315 0.055469517 0.11037729 0.08554414 -0.15114605 0.13595128 0.04834278
0.035608858 0.085744746 0.09308088 0.15849549 -0.098062895 0.03334453 -0.19373322 0.089602515
-0.00928877 -0.1949768 -0.121753894 -0.12839918 -0.09269411 0.096102685 -0.13481554 0.086927705
0.086713746 0.11109124 0.14585659 0.02026967 0.15522519 0.13945462 0.070259795 -0.13337561
0.002142897 0.09752413 -0.15301946 -0.005611894 -0.06587487 -0.005751754 -0.1826571 -0.104089156
-0.16818066 -0.10919039 0.04114861 0.06929921 0.040660467 0.067848474 -0.082290545 -0.045572568
0.05951506 -0.16183107 -0.021307778 -0.13772358 0.0655643 0.15753245 0.10837443 0.06736657
0.038341947 0.1297965 -0.10700286 -0.029802931 0.091496594 -0.07272427 0.08881801 0.19975963
-0.107556745 0.008459851 0.083564125 0.037468247 0.10153622 0.17410229 0.13887738 -0.0872138
-0.092627406 0.12710945 0.09477084 -0.15071018 0.08954961 -0.18861313 -0.17431323 -0.17431633
0.0888934 0.09985092 -0.1545751 -0.15610088 0.011657563 -0.14349529 0.07093544 0.073813654
0.09378399 -0.059157725 0.057483796 -0.038166087 -0.025314992 -0.12422742 -0.15213598 -0.17181331
0.13232888 -0.031755384 -0.17904885 0.041873384 -0.09779798 -0.07186794 -0.004282912 0.05546229
0.033495586 0.11563571 0.13923395 -0.18190071 -0.17293149 -0.0065692835 0.102262795 -0.032049086
-0.15983252 -0.041308828 -0.06929132 0.057881206 0.020930216 0.054051924 -0.09586887 -0.15617539
-0.09258516 0.063628286 0.16742747 0.0069235153 -0.1383851 0.01585177 -0.0055465205 0.052426677
-0.096435905 -0.12386931 0.019117609 -0.0873762 -0.12900472 0.07350888 -0.038715307 -0.18509218
0.032052737 0.021955686 -0.15441227 -0.12260297 0.07409016 -0.02135373 0.12515743 0.100205325
0.14641544 0.055792015 0.102428295 0.060295895 -0.050775044 -0.22094768 0.13990551 -0.108775765
00000000: 04e6 c1bd f038 69bc ca59 a9bc bc4b cfbd
00000010: a503 11be ad98 42be c9b4 1fbe 7f58 b9bc
00000020: f5e2 48be e9cb c7bd 3f4d 11be 1568 c73d
00000030: d45d 29be 3b56 293e f191 43bd 4088 113d
00000040: 8b7f 303d c097 ef3d 61ce 9c3d 8bc2 38bc
00000050: c109 32be bcfc 4a3d ea7d 17be d48b de3d
00000060: 7e05 3dbe 1711 c83d eaa8 d3bc fb26 3b3e
00000070: ee99 61bd 02cf 13be 91d4 b5bd 0bae 053c
00000080: 4237 433d e772 063e 5f5f 91bd 5c12 33bb
00000090: cea7 1fbd 292e 413c 16b9 d0bd 55c5 27be
000000a0: 9ae2 a23d 68fc 573d 8ffd 3abd b7e0 01be
000000b0: 057c 20bd 678f 1ebd ece8 16bd c493 34be
000000c0: 2a33 d73c dff1 edbd fdda 11bb 964c a2bd
000000d0: c92e 16be 38e5 4b3d 1aa2 4fbd 5f95 523e
000000e0: 34bd 0abe 3a84 40be aa8f 313c a60d 823d
000000f0: 47b7 693d 3cc3 603d 80c0 1bbd fd8c 6ebe
00000100: a3c8 8bbd ac5b babd 9749 8abd b9d7 8ebc
00000110: 360a 4d3d 4b0e 0f3e 48ed e73d 5856 c23d
00000120: df70 73be f22f 1f3b f4b1 87bc bae5 ccbc
00000130: 6760 003e bfdd 3cbd 3501 a93d cedb 0a3e
00000140: c828 153d 2526 aebd 7907 e1bd 6726 a4bd
00000150: 16c5 183a aaaa 59be eb57 813d bd1b e63d
00000160: 9524 a03d 21f8 fc3d 1497 8bbc 7691 8a3d
00000170: 779b 19be c23f cf3d d854 fe3d 63a3 35bd
00000180: aa66 adbd 00b7 2b3d e0be 57bd 468c f8ba
00000190: b2c6 fc3d 3f90 5e3d e458 7a3d 6017 43be
000001a0: 6450 0f3e 14a6 3b3a 0134 633d 7d0d e23d
000001b0: c431 af3d 08c6 1abe d036 0b3e 1403 463d
000001c0: 98da 113d f19a af3d 30a1 be3d a44c 223e
000001d0: 33d5 c8bd 4694 083d 0062 46be 8681 b73d
000001e0: ed2f 18bc 00a8 47be 1b5a f9bd 137b 03be
000001f0: 69d6 bdbd 7cd1 c43d 160d 0abe 2707 b23d
00000200: fa96 b13d ce83 e33d 6e5b 153e 940c a63c
00000210: 5af3 1e3e 31cd 0e3e 5ee4 8f3d 9e93 08be
00000220: d96f 0c3b bbba c73d 22b1 1cbe fbe3 b7bb
00000230: 67e9 86bd 3679 bcbb 760a 3bbe b22c d5bd
00000240: 8d37 2cbe 369f dfbd 728b 283d bfec 8d3d
00000250: 978b 263d 24f4 8a3d f287 a8bd 4daa 3abd
00000260: 10c6 733d 0bb7 25be a68d aebc 6907 0dbe
00000270: 9346 863d 3050 213e 6af3 dd3d 7cf7 893d
00000280: 720c 1d3d 60e9 043e 5124 dbbd 4725 f4bc
00000290: 9162 bb3d 76f0 94bd 38e6 b53d ca8d 4c3e
000002a0: b646 dcbd 309b 0a3c ab23 ab3d 4e78 193d
000002b0: 39f2 cf3d df47 323e df35 0e3e 269d b2bd
000002c0: 70b3 bdbd fb28 023e 3717 c23d c553 1abe
000002d0: c965 b73d cd23 41be 2b7f 32be fb7f 32be
000002e0: be0d b63d a47e cc3d ef48 1ebe e9d8 1fbe
000002f0: 5dff 3e3c 6ef0 12be 9a46 913d 9d2b 973d
00000300: d211 c03d 5f4f 72bd 2174 6b3d 0b54 1cbd
00000310: 6361 cfbc f26a febd 89c9 1bbe d4ef 2fbe
00000320: 3981 073e ef11 02bd 9558 37be 6d83 2b3d
00000330: 4f4a c8bd 802f 93bd ab57 8cbb 6d2c 633d
00000340: ab32 093d 6ad2 ec3d 5893 0e3e 2e44 3abe
00000350: f414 31be 2543 d7bb 286f d13d e745 03bd
00000360: 23ab 23be 7233 29bd 9ce8 8dbd d814 6d3d
00000370: d875 ab3c 8d65 5d3d e656 c4bd 71ec 1fbe
00000380: 4a9d bdbd 8c4f 823d 1b72 2b3e a8de e23b
00000390: d3b4 0dbe 92db 813c 96bf b5bb 5bbd 563d
000003a0: 3080 c5bd 31af fdbd 889c 9c3c 4bf2 b2bd
000003b0: d019 04be d38b 963d f193 1ebd ce88 3dbe
000003c0: bb49 033d 69dc b33c 401e 1ebe 4417 fbbd
000003d0: 95bc 973d 04ee aebc 4529 003e 7338 cd3d
000003e0: eeed 153e 2b86 643d edc5 d13d d4f8 763d
000003f0: 7ef9 4fbd 1c40 62be 6443 0f3e d4c5 debd

fc2.bias f4 [4]
0.019060833 -0.042487502 0.07039653 0.085185885
00000000: 7725 9c3c 6007 2ebd 0e2c 903d f075 ae3d
